[net]
# Testing
#batch=1
#subdivisions=1
# Training
batch=64
subdivisions=16
width=416
height=416
channels=3
momentum=0.9
decay=0.0007
angle=0
saturation = 1.5
exposure = 1.5
hue=.1

learning_rate=0.00161
burn_in=1000

#CHANGE IT TO NO OF CLASSES * 2000, MIN 6000
max_batches = 72000
policy=steps
#CHANGE IT TO 80 and 90 percent of max_batches
steps=57600,64800
scales=.1,.1


#weights_reject_freq=1001
#ema_alpha=0.9998
#equidistant_point=1000
#num_sigmas_reject_badlabels=3
#badlabels_rejection_percentage=0.2


[convolutional]
batch_normalize=1
filters=32
size=3
stride=2
pad=1
activation=leaky

[convolutional]
batch_normalize=1
filters=64
size=3
stride=2
pad=1
activation=leaky

[convolutional]
batch_normalize=1
filters=64
size=3
stride=1
pad=1
activation=leaky

[route]
layers=-1
groups=2
group_id=1

[convolutional]
batch_normalize=1
filters=32
size=3
stride=1
pad=1
activation=leaky

[convolutional]
batch_normalize=1
filters=32
size=3
stride=1
pad=1
activation=leaky

[route]
layers = -1,-2

[convolutional]
batch_normalize=1
filters=64
size=1
stride=1
pad=1
activation=leaky

[route]
layers = -6,-1

[maxpool]
size=2
stride=2

[convolutional]
batch_normalize=1
filters=128
size=3
stride=1
pad=1
activation=leaky

[route]
layers=-1
groups=2
group_id=1

[convolutional]
batch_normalize=1
filters=64
size=3
stride=1
pad=1
activation=leaky

[convolutional]
batch_normalize=1
filters=64
size=3
stride=1
pad=1
activation=leaky

[route]
layers = -1,-2

[convolutional]
batch_normalize=1
filters=128
size=1
stride=1
pad=1
activation=leaky

[route]
layers = -6,-1

[maxpool]
size=2
stride=2

[convolutional]
batch_normalize=1
filters=256
size=3
stride=1
pad=1
activation=leaky

[route]
layers=-1
groups=2
group_id=1

[convolutional]
batch_normalize=1
filters=128
size=3
stride=1
pad=1
activation=leaky

[convolutional]
batch_normalize=1
filters=128
size=3
stride=1
pad=1
activation=leaky

[route]
layers = -1,-2

[convolutional]
batch_normalize=1
filters=256
size=1
stride=1
pad=1
activation=leaky

[route]
layers = -6,-1

[maxpool]
size=2
stride=2

[convolutional]
batch_normalize=1
filters=512
size=3
stride=1
pad=1
activation=leaky

[convolutional]
batch_normalize=1
filters=256
size=1
stride=1
pad=1
activation=leaky

[convolutional]
batch_normalize=1
filters=512
size=3
stride=1
pad=1
activation=leaky

[convolutional]
#CHANGE IT TO (num of classes + 5)*3
size=1
stride=1
pad=1
filters=123
activation=linear



[yolo]
mask = 3,4,5
anchors = 10,14,  23,27,  37,58,  81,82,  135,169,  344,319
#CHANGE IT to no of classes
classes=36
num=6
jitter=.3
scale_x_y = 1.05
cls_normalizer=1.0
iou_normalizer=0.7
iou_loss=giou
ignore_thresh = .8
truth_thresh = 1
random=0
resize=1.5
nms_kind=greedynms
beta_nms=0.6
#new_coords=1
#scale_x_y = 2.0

[route]
layers = -4

[convolutional]
batch_normalize=1
filters=128
size=1
stride=1
pad=1
activation=leaky

[upsample]
stride=2

[route]
layers = -1, 23

[convolutional]
batch_normalize=1
filters=256
size=3
stride=1
pad=1
activation=leaky

[convolutional]
#CHANGE IT TO NUMBER OF (CLASSES+5)*3
size=1
stride=1
pad=1
filters=123
activation=linear

[yolo]
mask = 1,2,3
anchors = 10,14,  23,27,  37,58,  81,82,  135,169,  344,319
#CHANGE IT TO NO OF CLASSES
classes=36
num=6
jitter=.3
scale_x_y = 1.05
cls_normalizer=1.0
iou_normalizer=0.5
iou_loss=giou
ignore_thresh = .8
truth_thresh = 1
random=0
resize=1.5
nms_kind=greedynms
beta_nms=0.6
#new_coords=1
#scale_x_y = 2.0
